Image Classification/ImNet.pth (torch, 363604 bytes, 24 tensors)

conv1.weight f4 [64, 3, 5, 5]
00000000: 931b 283d a701 f6bd 3fa1 023d 80d4 82bd
00000010: c0f0 9f3c c572 17bd 074c 4cbd 0fcb 633c
00000020: 6673 543d 97d0 1a3c 6f42 5c3d d750 9c3d
00000030: b2d5 acbd eba6 e7bd 5ea3 b9bd d3ea 8b3c
00000040: ac44 91bd 9b6c d7bd 0289 3a3d bf5d 213d
00000050: bbdb eb3d 80c4 993d e2a4 843d 1f53 9ebd
00000060: 88c2 a7bd a889 49bd 6eb8 a8bc 0f65 233b
00000070: c35a b1bd 3c7a 813d 25ce 10bd 7167 6bbd
00000080: 7792 373d 5ef2 08be 3390 97bd 437a c93d
00000090: 0068 aabd 8cea eebd f67a ebbd 692a a1bd
000000a0: 351e e53d 1206 38bc 7d48 07be 2dad 2cbe
000000b0: 45d0 a83c d43b 913d 6d7f 89bd 9d0d b0bc
000000c0: f54e 5dbd 8740 9a3d 002a 8f3d 4a83 b5bc
000000d0: e3f4 d4bd 927a 5bbd 17cf a8bd 6014 bb3b
000000e0: e35c 93bc 9327 b5bd 0ee4 6e3d 2fd7 9e3d
000000f0: 1daa babd 3591 cb3d baee 7e3d 707d 16bc
00000100: a277 babc ddd6 24bd 656c 39bd 950e fbbb
00000110: ed0c 023d 0c83 003d 7974 563d 2701 bfbd
00000120: 0a29 92bd ba19 a9bd 7929 a8bd 6844 523d
00000130: b297 0dbd cdf9 37bd f50d 32bd 2d7e 123d
00000140: ff76 a73c b5cb 303c ce67 273d 8eca a2bc
00000150: b6d1 92bc 938b 3b3d 21a7 d6bd 31d9 b93c
00000160: 82fb 9dbd 8bc2 853d 86c1 b4bd 60ee eb3c
00000170: a45e 04bd e62d c8bd 7eb5 d23d 2f18 b03c
00000180: f563 a43d 37a0 e2bd 26a3 6abd e984 78bc
00000190: 9ca1 cabd 79d3 8a3d c0a7 3f3d 863d 0fbd
000001a0: 14b8 943c 5230 4dbd 5210 22bd 7df5 f23c
000001b0: 1a9b 8ebd b7c1 143d 946c 3a3c 2377 f63d
000001c0: c366 91bd e3c4 daba c59e b23c df89 273d
000001d0: 4a01 ae3d f71e 6f3d 22dd dabd 4e12 b7bd
000001e0: 877d 0c3b a4a6 fb3d 67ac 53bd 9aa3 7d3c
000001f0: b4d4 03bd 9352 d13d 48c5 b0bd 0f15 26bd
00000200: c4d4 dfbd bbe3 453d 0916 ad3d b824 d2bc
00000210: 6703 6c3c 5b1a efbd e515 e83c cfbd 653d
00000220: 1bad 9bbd 605b dbbc 1569 13bd d156 5abd
00000230: 4c56 873d 68af 253d e8fc 35bd c04b c63d
00000240: 8b0c 38bc b0d7 883c beab 943d 8082 bfbd
00000250: db3a 4c3d a1aa bd3d 3981 e83c f10b 37bc
00000260: 4968 a5bd a5b3 f93d e3a0 86bd 4926 db3d
00000270: 3ea3 8e3d 849d abbd ceb9 143d 932a 65bb
00000280: c0a5 8a3c 0d04 83ba 8e1b c03c 0d24 84bb
00000290: e429 42ba 3103 d6bd 08fd 54bd 6a36 a93d
000002a0: c773 883c 7a56 cc3c 8ccd 413d d4e7 d43d
000002b0: be53 f4bd 61b0 05bd 9759 b2bd 2757 0dbc
000002c0: 83d6 e53b 280c 163e abbd 863d 253d 863d
000002d0: 0b9f 123c 64e3 32bc e1cb a5bb 6cec 093e
000002e0: 292c ab3d 7731 91bd cca4 c5bd 8231 df3d
000002f0: 143b a5bd 738f be3d 6992 af3d 8ee8 58bd
00000300: 08c1 c1bd 306e 9fba 11b1 8abd 0a5f 99bd
00000310: fe5c 83bd 68cf bc3d 9c57 4bbd ce5d fabd
00000320: 760d d53d 3141 b83d 1be9 d8bc 8392 073e
00000330: 5bb4 0dbd 720e fb3c 0924 47bd 758b 50bd
00000340: 6435 1a3e f751 733d 5990 923c 9750 cbbb
00000350: 3c47 ab3c dbbe b13d e174 b7bd 84c5 ddbd
00000360: e3fb eeb9 9e6a b93d d7ad 2abd d55a 1fbd
00000370: e22d edba c26f fd3c f720 bb3d 49fa a1bd
00000380: e8ba b53d 8647 ab3d e554 0d3d f36f 78bb
00000390: 2c9a cdbd 6dea 8f3d 787c 18bd a185 9b3d
000003a0: a112 29bd 3f54 f5bc d2ba e23d 5203 d33c
000003b0: c959 babd 476c 933d 4249 b63d fd76 533d
000003c0: 51ff 3b3c 408c 85bd 446f bdbd 280a f6bd
000003d0: 2ad4 7bbd da36 7e3d 88ad ac3d a374 b33d
000003e0: 8e35 92bd 60fc d9bd 1417 833d 6ddc 4d3c
000003f0: 6fe6 c7bc 9bbd e8bd 9667 b73d 4e88 32bd
0.04104192 -0.12012034 0.031892058 -0.063881874 0.019523978 -0.036974687 -0.049877193 0.013903393
0.051867865 0.009449146 0.053774294 0.076326065 -0.08439197 -0.11311134 -0.09064363 0.017079746
-0.07093176 -0.10518762 0.045540817 0.039396044 0.1151652 0.075081825 0.064767614 -0.07730698
-0.08191401 -0.049203545 -0.020595755 0.0024932062 -0.086598895 0.063221425 -0.035352845 -0.057471696
0.044817414 -0.13373706 -0.07400551 0.09837773 -0.08320618 -0.1166583 -0.11498062 -0.07869417
0.11187402 -0.011231916 -0.13211246 -0.16862936 0.020607123 0.070914894 -0.06713758 -0.021490866
-0.054030377 0.07531839 0.06990433 -0.02215733 -0.10398271 -0.05358369 -0.08242624 0.005709216
-0.017988628 -0.08845439 0.05832296 0.07755887 -0.09114478 0.099398054 0.062239386 -0.00918518
-0.022762123 -0.040243972 -0.04526939 -0.0076616504 0.03175061 0.031374976 0.05235717 -0.09326392
-0.07136734 -0.0825686 -0.08211035 0.05133477 -0.034568496 -0.044915963 -0.04347034 0.03576486
0.020442484 0.010790755 0.04087048 -0.019871976 -0.017922264 0.045787405 -0.10481096 0.022686573
-0.07713987 0.06531247 -0.08825974 0.02880019 -0.03231682 -0.097743794 0.10288523 0.021495907
0.08026878 -0.11065715 -0.057284497 -0.015168407 -0.09894106 0.067786165 0.04679084 -0.034970783
0.018154182 -0.05009491 -0.039566346 0.029658074 -0.06963177 0.036317553 0.011378426 0.12034442
-0.07099678 -0.0016690757 0.021804223 0.04090297 0.084963396 0.05837914 -0.10686709 -0.08939038
0.0021437125 0.122876436 -0.051678088 0.0154809 -0.03218527 0.10220828 -0.086313784 -0.040547427
-0.10929254 0.048312884 0.084514685 -0.025652274 0.014405108 -0.11674949 0.028330753 0.05608922
-0.076013766 -0.02677697 -0.035988886 -0.05330545 0.06608257 0.040450484 -0.044430643 0.09682417
-0.011233459 0.01670441 0.0725932 -0.09351063 0.049860816 0.092610605 0.02838193 -0.011172281
-0.080765314 0.121924676 -0.065736555 0.10700662 0.0696473 -0.08379653 0.03631001 -0.0034968003
0.016924739 -0.0009995714 0.02345064 -0.004032618 -0.0007406755 -0.104498275 -0.051999122 0.08262332
0.01665677 0.024943579 0.047315165 0.1039578 -0.11930035 -0.03263891 -0.08708494 -0.008626736
0.007014097 0.14653075 0.06579145 0.06554631 0.008949052 -0.010918472 -0.0050597047 0.13469094
0.08358032 -0.07089513 -0.09650573 0.10898115 -0.08067909 0.093047045 0.085728474 -0.052956156
-0.09460646 -0.0012163576 -0.06772054 -0.074888304 -0.06414221 0.09219247 -0.049644098 -0.12224923
0.10402958 0.08996809 -0.02647834 0.13239484 -0.03459583 0.030646536 -0.04861835 -0.050914247
0.1505943 0.05940434 0.017891096 -0.0062046754 0.02090799 0.08678981 -0.0895784 -0.10828689
-0.00045582568 0.09053539 -0.041669693 -0.038904984 -0.0018095339 0.03093708 0.09137147 -0.07909066
0.0887354 0.083632514 0.03450479 -0.0037908524 -0.100391716 0.07027135 -0.037228078 0.07593847
-0.04127753 -0.029947398 0.110707894 0.02575842 -0.090991564 0.07198387 0.089006916 0.051627148
0.011474446 -0.06520891 -0.09249738 -0.12013656 -0.061481632 0.06206403 0.08431536 0.08762481
-0.07139121 -0.1064384 0.06400886 0.012564761 -0.024401871 -0.113642894 0.08955304 -0.04358702

conv1.bias f4 [64]
00000000: f510 67ba ae2e ec39 de28 abba c7b6 b3ba
00000010: e4dd 23b9 b1b3 0f3a c99a 8cb8 f971 34ba
00000020: eaee acb9 8908 02ba 2152 4ab8 5f99 a5b8
00000030: b609 a9b8 c7fa bdb9 4f84 783a 3f66 8eba
00000040: 07d8 2039 eda4 54ba 1046 dfb8 7a16 d138
00000050: cff7 fb39 0351 9cba f974 9b3a 69a2 2a38
00000060: 1fef a5b8 a90b 7739 c0db d9b9 2e1e 8bba
00000070: a82f 5bba 4a44 8aba 41a4 8eb8 d07a 3d39
00000080: 51d1 56b9 a4a5 62b9 a665 63b8 58f5 31ba
00000090: 588f a4b9 4abc e939 8483 e739 0b0c 9439
000000a0: cce5 9ab9 b5a3 17ba 5ef1 9b3a e405 e539
000000b0: c9fd afba 633a a038 753f 94ba 2dff 3539
000000c0: bdfc 00ba 45c6 ac38 f699 343a a005 8f39
000000d0: 928b da39 6ecb 2bba 60dc ad3a b41b e2b8
000000e0: 6445 1e38 aa48 a33a 6201 abba 81c2 1539
000000f0: 0b38 4fb9 aed9 3bba 60da cbb9 96b9 253a
-0.00088144775 0.00045048207 -0.0013058444 -0.0013711088 -0.00015627552 0.0005481793 -6.704551e-05 -0.00068834383
-0.000329844 -0.0004960378 -4.823704e-05 -7.896381e-05 -8.060357e-05 -0.00036235733 0.0009480165 -0.0010864212
0.00015339266 -0.0008111734 -0.00010646519 9.970083e-05 0.00048059082 -0.0011925999 0.0011860422 4.0682415e-05
-7.912353e-05 0.000235601 -0.00041553192 -0.0010613853 -0.00083612883 -0.0010548916 -6.801682e-05 0.00018070196
-0.00020486607 -0.00021614745 -5.4215685e-05 -0.0006788573 -0.00031387317 0.0004458151 0.0004415774 0.00028237732
-0.0002954438 -0.0005784587 0.0011897495 0.00043682673 -0.0013427074 7.64027e-05 -0.0011310416 0.00017356566
-0.00049204734 8.23853e-05 0.0006889397 0.00027279276 0.00041684188 -0.0006553446 0.0013264529 -0.0001078168
3.773476e-05 0.0012457569 -0.0013046677 0.00014282206 -0.00019761936 -0.00071659207 -0.0003888188 0.0006321905

batchnorm1.weight f4 [64]
00000000: a580 743f 463a 813f 61dd 6f3f fb66 803f
00000010: 05f2 7a3f dd8e 6e3f 49ec 7a3f 4736 7d3f
00000020: a890 843f fc29 813f 0417 803f c9a7 833f
00000030: c257 733f 76e6 7f3f 2887 813f 974c 853f
00000040: 2566 893f f944 7b3f 87ca 783f 68ed 793f
00000050: 0bc0 843f 21ff 793f dd5c 853f e26a 803f
00000060: 9189 773f fae7 813f 937b 733f 3604 763f
00000070: a701 853f 69a3 753f 1b35 7f3f 399c 793f
00000080: a558 753f 91f9 843f cdbd 773f 45e7 713f
00000090: 4b71 833f e0ef 753f dd95 813f 39a1 6f3f
000000a0: aa34 773f 82cb 823f cdef 7a3f 715d 853f
000000b0: 93e9 813f b0de 7e3f 381f 7c3f 06c1 773f
000000c0: 4c67 803f c626 783f 98cd 833f a74d 823f
000000d0: 6115 823f 5307 7a3f 6211 803f 5fa0 833f
000000e0: 564f 733f 5b8d 783f 3b39 783f c4c4 793f
000000f0: fad9 7a3f c728 7a3f 4773 7d3f 837f 843f
0.95508796 1.0095909 0.9369717 1.0031427 0.9802554 0.9318674 0.9801679 0.98910946
1.0356646 1.0090938 1.0007024 1.0285579 0.9505578 0.9996103 1.0119371 1.0413998
1.0734297 0.9815212 0.9718403 0.9762788 1.0371107 0.9765492 1.0418965 1.0032618
0.96694285 1.0148919 0.95110434 0.96100175 1.0391129 0.9595247 0.9969041 0.97504
0.95838386 1.0388662 0.9677399 0.94493514 1.0268949 0.96069145 1.012386 0.9360538
0.96564734 1.0218356 0.98022157 1.0419141 1.0149406 0.99558544 0.98485136 0.96778905
1.0031524 0.96934164 1.0297117 1.0179948 1.0162774 0.97667426 1.0005305 1.0283316
0.9504293 0.9709069 0.96962327 0.97565866 0.97988856 0.9771847 0.99004024 1.0351413

batchnorm1.bias f4 [64]
00000000: 5c3a 11bd 0407 0bbc 7f86 64bc 3dcb 9ebd
00000010: 886d 40bb 9e7b 67bd bfed 463c dda4 9b3c
00000020: 0215 a0bc 5162 d6ba 91bd a0ba 3c6d f9bb
00000030: f824 5ebd 2039 d3bc cad5 d4bc ca1c 1f3d
00000040: dec2 853d cb94 29bc 00e5 1cbc 9d45 06bd
00000050: 2089 263d 7509 a3bc 1cc0 10bd fd6f 3a3c
00000060: 41ba 9abd ce40 963c 8992 10bd b153 73bc
00000070: 26f3 3ebc 14f9 01bb d030 753c f848 093c
00000080: 2dbb 29bd 4044 563d e956 8fbd e613 1abd
00000090: 4b1a f7bb 69b3 50bc a846 df3a ac24 99bd
000000a0: 0f88 e9bc fb8f 873c 12d8 14bc 05d2 89bc
000000b0: be40 423c aaf5 c43c 0246 fbba 9dd1 85bb
000000c0: 1015 553c d963 fbbc 4591 a7bb acdf c4bc
000000d0: e818 e43c 911c 61bb 5493 a7bb 8397 2f3d
000000e0: a01c 3dbd 3802 59bc 39a5 3cbc e294 91bc
000000f0: c292 1b3c d357 d73b 5b3b 5f3c 76fd 073d
-0.035456046 -0.008485559 -0.013948082 -0.077536084 -0.002936216 -0.056514375 0.012141644 0.018999511
-0.019541267 -0.0016356205 -0.0012263526 -0.0076118987 -0.054234475 -0.025784075 -0.025980849 0.038845815
0.065313086 -0.010350416 -0.009576082 -0.032781232 0.040658116 -0.01990197 -0.03533946 0.011379239
-0.07555056 0.018341448 -0.035295997 -0.014851497 -0.011654651 -0.00198323 0.014965251 0.0083792135
-0.04143827 0.052311182 -0.06998999 -0.037616633 -0.007540976 -0.012738087 0.0017034607 -0.07477698
-0.02850726 0.016548147 -0.009084718 -0.016823778 0.011856256 0.024042923 -0.0019170644 -0.0040838257
0.01300551 -0.03068726 -0.005113753 -0.024032436 0.027843907 -0.0034349302 -0.0051139984 0.042869102
-0.046169877 -0.013245158 -0.0115140015 -0.017771188 0.009495439 0.0065717488 0.013624991 0.033200704

batchnorm1.running_mean f4 [64]
00000000: a4b0 233f 5cd1 893d dde6 8bbe 4a57 9ebd
00000010: 56b1 773d 29a4 f73e d023 45be d547 e1be
00000020: 4f7f 9e3c 9bfe e43d afbf 1c3e de67 833d
00000030: b0dd 183f a471 3b3e 11bb a33d e3e5 9d3c
00000040: 1a96 933d dd12 b9be 2548 26bd 22f0 ad3e
00000050: ea41 123d f7fd 2fbf d026 b7bd 548b e23d
00000060: 3c08 eb3e c858 eb3e 344c 0ebf c88f 493d
00000070: d278 643d 32fd 8abc 62a7 a8ba 22ce 69bd
00000080: 26b4 b83e b90f 753d db20 a43e 7c1a d4be
00000090: 1190 dd3d 5a90 0bbe 8b8d 6ebc 27d4 1e3f
000000a0: 0d09 753e c97e 503d b5fd 8b3e 55d2 07bd
000000b0: 0d4e fabd 6b4f f83d 1638 40be 7f2e 953e
000000c0: 49b2 983d ec63 ac3e 24bc 34bd 2000 d0bd
000000d0: e5ef 6d3e 666b 443f 5908 56be e564 10bd
000000e0: b1dc 273f ca1b 883e 4072 c6be dad1 673e
000000f0: 8c84 913d d8a7 2b3e f2f2 01bd e23d 84bd
0.6394141 0.06729385 -0.27324572 -0.07731493 0.060471855 0.48367432 -0.19251943 -0.44000116
0.019347815 0.11181375 0.15307496 0.064162955 0.5971327 0.18305069 0.079946645 0.019274658
0.07206364 -0.36147204 -0.040596146 0.3397227 0.03570739 -0.68746895 -0.0894295 0.11061731
0.4590472 0.45966172 -0.55585027 0.049209386 0.055779286 -0.016966436 -0.0012867267 -0.05708135
0.36074942 0.059829447 0.32056317 -0.41426456 0.10818494 -0.13629285 -0.014560114 0.6204247
0.23929234 0.05090216 0.27342 -0.033159573 -0.12221918 0.12124523 -0.18771395 0.29137036
0.0745588 0.33669984 -0.044124737 -0.10156274 0.23236044 0.76726377 -0.20901622 -0.03525247
0.65571123 0.265837 -0.3875904 0.22638646 0.071053594 0.16763246 -0.03172583 -0.06457116

batchnorm1.running_var f4 [64]
00000000: 7fd4 553e 1e46 593c c1b1 693d c5e3 313c
00000010: c9b0 863c 3c5f 123e 070d db3c 7595 a33d
00000020: bc43 b53c a586 2c3d 1401 eb3c 54da 0a3d
00000030: 06a5 413e 5d2f 173d 8a28 d23c 3f92 ce3b
00000040: 0f3f 323d 0b81 c83d 19d8 bc3c 8d5b 863d
00000050: 7665 3d3d c4cf 863e aa14 0c3d 0d11 613c
00000060: b432 fa3d 54bc 033e 9f85 263e c42d d93c
00000070: d199 1b3c f6c8 d03c f59d 823c 983c a53c
00000080: 53b0 a93d 1533 f53c 7227 7c3d a226 ea3d
00000090: 9502 723c 3195 e13c b9d4 273c eb95 453e
000000a0: 2568 c13c a344 9a3c a0d5 583d e781 b43c
000000b0: df54 363c 3ca7 b03c 9ad2 0d3d c0f0 8a3d
000000c0: 480a 193d 4819 7c3d ceea bc3c fab9 f63c
000000d0: b5f9 553d e010 4c3e 2faa 4b3d cb72 d13b
000000e0: 695b 2e3e c934 5a3d a699 e33d e87e 863d
000000f0: b3b1 de3c bb44 1b3d aedf d73c a75e 2c3c
0.20881842 0.013261346 0.057054285 0.010857527 0.01644172 0.14294142 0.02673961 0.07987491
0.022127025 0.042120595 0.028687038 0.03389962 0.18910608 0.036910404 0.025654096 0.006304055
0.04351717 0.09790238 0.023052262 0.06560431 0.04623934 0.26330388 0.034199394 0.013736975
0.12216702 0.1286481 0.1626191 0.02651108 0.009497122 0.02548645 0.01594446 0.020170495
0.08285584 0.029931584 0.061561055 0.1143315 0.014771123 0.02753696 0.010243588 0.1929547
0.02360923 0.018831557 0.052938104 0.022034599 0.011128633 0.021564119 0.034624673 0.06784201
0.03736332 0.061547548 0.023061182 0.030117977 0.052240092 0.19928312 0.049722847 0.006391858
0.17027058 0.053272996 0.111132905 0.06567174 0.027184343 0.037907343 0.026351776 0.010520614

conv2.weight f4 [32, 64, 5, 5]
00000000: 12af 223c f7b0 22ba 9a9b ef3c 446e 96bc
00000010: 1094 08bc 6972 e239 6523 5e3b c54e 8cbc
00000020: 93ad a63b 0495 43bc 5c4a b03b 0c7a 253d
00000030: 57d9 e3ba 194d 703c 3c2b 00bd 16fb 0c3d
00000040: 3deb 163c 5fe9 5d3c 8c64 c4bc 8e8b 7f3a
00000050: 2186 813c 9881 183d 0176 c9ba b5dc 223c
00000060: d3c3 913c 26be 163c 1101 f23c e13a fdbc
00000070: a871 46bd 9c14 6dbc 3ad6 fc3c 8603 5ebc
00000080: 402e fa3a 470e 06bd a34c 9dbc 0483 233d
00000090: 4103 763a 4086 ab3b d15f a63b a249 c8bc
000000a0: e42d ce3c a41b f83c ec87 baba b44d 0b3d
000000b0: 8adf 9d3c eee3 1ebb d5c9 663c bf37 0b3c
000000c0: 9fc9 353c 78bb 273d 70a2 09bd f6a1 06bb
000000d0: 5bef cdbc ced6 0ebd dcf7 763c 0341 dfbc
000000e0: d25b 793b 333a a1bc 2ea2 a7bb 45f2 59bc
000000f0: cc7d 36bd 3365 afbb 78ae e53c 2d28 343d
00000100: 2c0a d23c 29b1 773b 30c7 afbc de09 1a3d
00000110: 0ec2 6c3c 1945 5b3d 3d69 b0bc 1098 a3bb
00000120: 9001 cc3c 5940 47bc 144d af39 6ecb a73c
00000130: 5198 92bc 76f7 16bc 87a5 423c 9bf7 4abd
00000140: ea14 163d 4e7b bdbc 23c7 4d3c 5e88 bb3c
00000150: 23dc a4bc c868 003d 17b3 403c f8cd 493c
00000160: 1569 853d eeca eb3c 5aff db3c 6ef9 f23c
00000170: b3b4 403d 2643 0f3d ec9c b53d 4999 753d
00000180: d0e6 4e3d ad9f a13d 76e4 853c ab86 933c
00000190: 2987 f4bc 1f3a c63b 6165 febc cd83 1abc
000001a0: 0457 cbbb ed35 40bd a267 4e3b c033 40bb
000001b0: d23a 36bb db25 0ebc 4dbd 893b 2a81 2ebc
000001c0: ecac 4ebc f14b cd3b 3fcb 4d3b aaef 913b
000001d0: df99 c63a e9c3 11bd 93fb 4aba 0c32 21bc
000001e0: 2ede 20bd 14a7 d7bc 40d6 8abc e0c8 efbc
000001f0: e0f3 9fbc 75a9 863c 3f90 1ebc 64e0 04bd
00000200: 1b1b cabc 098f 7abc 01a1 a93c fe52 973c
00000210: 8b2e 47bb f587 43bd 5ae7 cfbc 813a 803c
00000220: 5759 c33c 2d0a 7e3c 4125 a2bc c4c7 49bd
00000230: bb57 c13b eda9 a03c fda1 383a 5934 32bb
00000240: d0ad d5bc 66c1 fd3b 8ea4 003d 8e23 c4bc
00000250: 2b7d 373c 3b19 56ba 2a17 22bc 4858 08bd
00000260: 8c30 07bd 248d 18bc 4dc9 653c 1462 e5bc
00000270: 62db 2fbd 6e59 c9ba 12ae 233d 3b7d 393d
00000280: 4cb9 49bc 653c d3bb e2ce bd3c 7523 e93b
00000290: 3a55 df3b 6123 3cbd dbee 98bc 7158 583c
000002a0: beea cb3c 2b5a c33c a8a3 81bd e6a8 afbc
000002b0: 1aa8 acbc 55f0 df3c 203a 97bc 428d 653c
000002c0: afca 803c 6397 18bb e319 183d ae67 343c
000002d0: 7c95 d43c f3ff a43c a351 ea3c e626 803d
000002e0: 2049 113d 4f94 d6bc b91f 7bbc f53d 013d
000002f0: c27e 863d 87b4 5c3d f420 59bd 2209 d93c
00000300: 0c14 a13d cf63 873d 9e1a 2c3d ab0d 3cbd
00000310: 5b3d d83c 1e80 143d 1d03 383d 0570 02bc
00000320: 11fe cd3c 3661 133d 88c3 f8bc dc59 d6bc
00000330: 2e47 c2ba ef40 4b37 bced 083d 46bb 86bc
00000340: 8b6a bebb 6e42 083d 6761 4dbb d56d c8bc
00000350: 4817 b3bd f97a efbc a3ae 703c cfd0 cf3c
00000360: 3f34 7dbc d700 a5bc c5fc 103d 1321 6a3d
00000370: 0e51 1b3d c3a7 41bc 4f23 11bd 27ae 3d3a
00000380: 3ed9 ac3a 6bbe b5bc 7bb4 6e3c 1199 4dbc
00000390: fdc0 d73b 49a9 b53c e204 fc3c 7a14 163d
000003a0: 5114 e13c a68f ef3c 1b0f ab3c d5af a63c
000003b0: 3074 73bb f1b2 893c b19c ad3c acc5 a33c
000003c0: 2f96 bfbc 92e6 5cbc 0faf 5cbc 0202 bc3c
000003d0: 79b1 673c ca55 cfbc b34e 29bd 5c25 a3ba
000003e0: 421a aebb 3d36 cb3b 3843 31bd 2c05 f8bc
000003f0: 002f e9bc 231d b8b9 f823 8fbc 10bc 043b
0.009929435 -0.00062061794 0.029249001 -0.018363126 -0.008336082 0.0004319132 0.0033895609 -0.017127404
0.0050866096 -0.011937384 0.005379958 0.040399596 -0.0017383498 0.014666819 -0.03129123 0.03441914
0.009211359 0.01354441 -0.023973726 0.00097482733 0.015811028 0.037232965 -0.0015370251 0.009940316
0.017793572 0.009200608 0.029541524 -0.030911865 -0.048448235 -0.014470246 0.03086387 -0.013550645
0.001908727 -0.03272846 -0.019201582 0.039919868 0.000938464 0.0052345097 0.00507734 -0.024449173
0.025168367 0.030286618 -0.0014231182 0.03400965 0.01927163 -0.0024244743 0.014086206 0.008497178
0.0110954335 0.04095027 -0.033602178 -0.0020543314 -0.025138548 -0.034872822 0.015073743 -0.02725268
0.0038049114 -0.019681072 -0.005115769 -0.01330239 -0.044553563 -0.00535264 0.028037295 0.043983627
0.025639616 0.0037794805 -0.021457285 0.037607066 0.014450563 0.053532694 -0.021534557 -0.0049924925
0.024903089 -0.012161338 0.0003343603 0.020482745 -0.017894896 -0.009214273 0.011880285 -0.04955254
0.03664104 -0.023130085 0.012559685 0.022892173 -0.0201245 0.031349927 0.011761448 0.012317173
0.065141834 0.028783288 0.02685516 0.029659953 0.04704733 0.034976147 0.08867821 0.059960637
0.05051309 0.07891784 0.01634429 0.01800855 -0.029849606 0.006049409 -0.0310542 -0.009430838
-0.0062054414 -0.046926428 0.0031494875 -0.002932772 -0.0027806056 -0.008676018 0.0042034746 -0.010650912
-0.01261447 0.0062651564 0.0031401662 0.004453619 0.0015152058 -0.035587225 -0.0007743176 -0.009838592
-0.039274387 -0.026324786 -0.016947865 -0.02927059 -0.019525468 0.016438225 -0.009677946 -0.032440558
-0.024671128 -0.015292891 0.020706655 0.018472191 -0.0030392732 -0.04773708 -0.025378872 0.015652897
0.023846311 0.015505356 -0.019793155 -0.049262777 0.005900351 0.019612277 0.0007043181 -0.0027191846
-0.026083857 0.007744002 0.03140693 -0.023942735 0.011199276 -0.0008167212 -0.009893218 -0.033287317
-0.033005282 -0.009310994 0.014025045 -0.028000869 -0.04293383 -0.0015361735 0.03996093 0.045285445
-0.012312245 -0.0064464086 0.023169938 0.0071148225 0.0068155797 -0.045932177 -0.018668583 0.01320468
0.024892207 0.023846706 -0.06330043 -0.021442842 -0.02107625 0.027336279 -0.018460333 0.014010729
0.015721647 -0.0023283593 0.037134062 0.011011047 0.025950186 0.020141577 0.02860338 0.06257419
0.035470128 -0.026193766 -0.0153273875 0.031553227 0.06567146 0.0538831 -0.053009942 0.026493613
0.07865152 0.06610834 0.04201757 -0.045911472 0.026396444 0.036254995 0.044924844 -0.007961278
0.025145562 0.03598138 -0.030366674 -0.026165895 -0.0014822239 1.2114861e-05 0.033429846 -0.01644672
-0.0058110408 0.033266477 -0.0031338574 -0.024466434 -0.08744675 -0.029233443 0.014690074 0.025368122
-0.015454351 -0.020142002 0.03539731 0.05716045 0.037919097 -0.011819783 -0.035434064 0.00072357286
0.0013187302 -0.022185525 0.014569397 -0.012548701 0.0065842853 0.022175448 0.030764047 0.03664062
0.027475508 0.029243302 0.020881226 0.020347515 -0.003714811 0.016808959 0.02119288 0.019991718
-0.023387043 -0.013482707 -0.013469472 0.022950176 0.014141434 -0.025309462 -0.04133482 -0.0012447047
-0.005313189 0.006201534 -0.043276995 -0.030275904 -0.028464794 -0.00035116923 -0.017473206 0.0020253696

conv2.bias f4 [32]
00000000: 1119 13b9 0c72 0938 7882 1038 58c1 4c38
00000010: 4ed1 05b8 1133 87b8 aded d6b8 3504 a8b8
00000020: 5574 94b8 6e7a bcb7 7be3 1a39 75e6 ceb7
00000030: 3f0a 4e38 2740 9438 744d a537 296e a837
00000040: bc8c 2738 baa2 d1b7 26c2 b038 70f1 e8b7
00000050: 7bed 98b8 467a 9938 3e9f a838 95bd c837
00000060: c2a5 f1b7 3a77 d9b8 a965 01b8 dc52 c137
00000070: 3679 5b37 fd3a 9138 679d 14b8 d157 12b8
-0.0001402835 3.276956e-05 3.4453784e-05 4.8817456e-05 -3.19046e-05 -6.4468135e-05 -0.00010248586 -8.011648e-05
-7.0788585e-05 -2.2468357e-05 0.00014771328 -2.4664429e-05 4.912377e-05 7.069139e-05 1.97056e-05 2.0078458e-05
3.994697e-05 -2.4990517e-05 8.428497e-05 -2.7768983e-05 -7.292159e-05 7.318384e-05 8.0405254e-05 2.3930139e-05
-2.8806626e-05 -0.00010369574 -3.0850675e-05 2.3045977e-05 1.3081639e-05 6.925126e-05 -3.5432542e-05 -3.4890898e-05

batchnorm2.weight f4 [32]
00000000: fdd4 7a3f a97b 843f c4b9 823f 6555 873f
00000010: 0160 7a3f b37a 803f 4b29 7c3f 4267 833f
00000020: 8814 813f 0225 813f 47cf 763f dd89 763f
00000030: 6b48 7a3f 0537 833f 5b0e 783f 4906 7f3f
00000040: 6aee 783f f954 7c3f 1853 823f 8ca2 823f
00000050: 794b 7f3f 1ba3 7c3f 88b8 843f 4aa2 813f
00000060: c4e1 7f3f 3332 783f 102e 823f 5a55 813f
00000070: c1b2 803f d6b6 803f 5b0d 7a3f c703 803f
0.97981244 1.0350238 1.0212941 1.0572935 0.9780274 1.0037445 0.9850051 1.0265887
1.0084391 1.0089419 0.9641003 0.9630411 0.9776675 1.0251166 0.96896905 0.99618965
0.9723879 0.9856716 1.0181608 1.0205855 0.9972454 0.9868638 1.0368814 1.0127652
0.99953866 0.969516 1.0170307 1.0104172 1.0054551 1.0055797 0.9767663 1.0001153

batchnorm2.bias f4 [32]
00000000: cd5c bf3a facf 0fbb 959d 4d3c f34b 52bc
00000010: ca6d febc 9ab9 85bc 037d a6bc 497f 94bc
00000020: de34 5f3c 87c2 283c 718a 07bd 2819 62bd
00000030: 7a89 27bc dbe9 473c bd19 0cbd a8cf 05bd
00000040: 5cfa 60bd f204 0cbd e64f c63b 31b3 b7bc
00000050: 74fc 44bc 1b76 bfbc 9921 a7bc ddd0 663b
00000060: fa05 aabb 03f1 3ebc b461 0cbb adf2 243c
00000070: 2d82 83bb 6e6c a7bc 6b8b 05bd dc1f 363b
0.00145998 -0.0021944032 0.0125497775 -0.0128354905 -0.03105821 -0.016323853 -0.020323282 -0.0181271
0.013623444 0.010300285 -0.033091012 -0.055199772 -0.010225648 0.012201752 -0.034204233 -0.03266874
-0.05492626 -0.034184404 0.006052005 -0.022424312 -0.01202308 -0.023371747 -0.020401763 0.0035219707
-0.0051887007 -0.011654141 -0.002142054 0.010067624 -0.004013321 -0.020437445 -0.032603662 0.0027789986

batchnorm2.running_mean f4 [32]
00000000: bac4 0abf 4e2c cdbf 2d23 babf 0a08 c5bf
00000010: 44b0 6bbf 9c92 033e 1150 02c1 d1ca 0640
00000020: 8993 16bd e02e 04bf 5a48 a8c0 b358 b240
00000030: 3c75 003f 7317 edbf 3575 4240 2bbe e9bf
00000040: b297 f5bf ee1f 89c0 86a4 62c0 93a1 1bbf
00000050: cdfd bebf 8372 2b3f eac9 3fbf a948 5dbf
00000060: 9cf2 4a40 507e fd3e 3977 cfbe 8e86 47c0
00000070: 79e0 aebf d223 c3c0 ea62 87bd 4806 c9bf
-0.5420643 -1.6029146 -1.4541985 -1.5393078 -0.92065835 0.12848896 -8.144547 2.106129
-0.036761794 -0.51634026 -5.258832 5.5733275 0.50178885 -1.8522781 3.0384037 -1.826116
-1.9186919 -4.2851477 -3.5412917 -0.6079342 -1.4921204 0.66971606 -0.7491747 -0.86438996
3.1710577 0.4951043 -0.40520647 -3.1175876 -1.3662254 -6.0981226 -0.06610663 -1.5705042

batchnorm2.running_var f4 [32]
00000000: efaa 1341 2809 0a41 8acc 4d41 979b 3741
00000010: 5c25 2941 5353 6841 6db9 9441 a670 2741
00000020: ffe7 f840 9559 3f41 3aef 5341 7a03 e641
00000030: 5bf6 d140 a146 fa40 50ef f241 5078 8041
00000040: 739e 7341 101c 1d41 b25c 2c41 f93f 1341
00000050: 1ca8 c340 8f71 1a41 27b9 e240 d8dd dd40
00000060: 9748 2141 cf29 4b41 4e88 2441 8f34 b241
00000070: 8737 8641 1909 8a41 0e3d 5641 273d 0441
9.229232 8.627235 12.862436 11.475486 10.571621 14.520343 18.59054 10.465002
7.77832 11.959371 13.245905 28.751698 6.5613227 7.8211217 30.366852 16.058746
15.226184 9.819351 10.772631 9.203118 6.114271 9.652724 7.0851016 6.9333305
10.080222 12.697707 10.2832775 22.275663 16.777113 17.254442 13.389906 8.26493

conv3.weight f4 [16, 32, 3, 3]
00000000: 2be4 a5bc c2a8 6b3d b9f9 793d 11a0 32bd
00000010: 9941 f5bb 6f7b 433d 8f92 edbb 2d70 f83c
00000020: fa6b ddbc 811f ab3d 49ce c03d c9eb 97bd
00000030: 0ee1 c23b a0f6 acbb 0ec9 dbbc f3b4 1cbc
00000040: 5e63 5cbd de86 d5bc 895a a7bc 0175 9f3c
00000050: 3e4f dd3c 3eb2 f1bc 5cd5 bbbc 4520 34bd
00000060: 379c 353d a223 89bc 8766 29bd 76c8 90bd
00000070: d892 a73d 5c9a 103d dace 103d 4296 883c
00000080: cfae 2f3d d7ee 82bc 721a 023d 6fcc 233d
00000090: 781e 3dbd 94e4 efbc 7e67 a53c 7637 d63c
000000a0: 50d7 813d b1f6 71bc bf35 72bd 7283 423c
000000b0: 93db c4bc 2b18 463d 5283 263d cf82 0cbd
000000c0: 42e7 163d 1ffb dfbc 3e3f ad39 f09d 00bc
000000d0: 814e bebc 65c5 fe3c 1c56 d2bc 9817 5ebd
000000e0: fe2c 823d 19d8 1a3d cda8 dcbc a820 29bd
000000f0: 9cf9 4fbd 5836 69bd 030d 963c c650 7a3b
00000100: 07f7 203d 3784 823d 5e55 6cbd b699 113d
00000110: 17af 9cbc ea85 64bd c5cc 783d cbe5 e5bb
00000120: bcfd 0a3d c202 083d 61f6 eabc 75a9 0539
00000130: 9921 ac3b ae0c 64bd f2ac 8b3d 0c06 6b3d
00000140: d807 7d3b 478a bf3b d98d df3b 0709 9bbc
00000150: 092b 65bd be3e 16bc c409 90bd 1b3a d8bc
00000160: 7a78 58bd 5423 4cbd b881 893c ec8f f9bb
00000170: 3755 89bb 4cae 0bbc aed1 433d e9f9 09bd
00000180: d0d7 4b3d 9e08 2ebd bfe6 033d b81e fb3c
00000190: 128f 3a3d c4f4 38bc 1af1 11bd b57e f4bc
000001a0: a7a5 b73a fec6 08bd 9734 23bd 146d d8bb
000001b0: 1aba 4d3d 6ab3 8a3d acaf e23c b4ac 743d
000001c0: 0fd7 f0bc 35f1 d63c cc9d 1fbd 40b2 fd3b
000001d0: 5fe2 463c 559c 2e3d 0c03 8e3b 34a8 5c3b
000001e0: 720b 3c3c 76d9 71bd 8e49 803d 858b 0abb
000001f0: d48c 92bd 523a 9bbc b912 87bb 4ead 7a3c
00000200: 5706 32bc 20b4 76bd d4e3 ff37 a5db bbbc
00000210: a5a5 61bb 54b7 a5bc b82f 2a3d 1884 c0bb
00000220: dde0 2abd f4ae 73bd 860d 64bd a960 5dbd
00000230: 3766 bfbd 98ce 14bc 7ee8 11bd 53a9 963b
00000240: 4013 363d 01a8 47bc 15e9 823c 3234 a33c
00000250: 1a2d eb3c e85a 00bd 6590 033c 704d 203d
00000260: 978f 74bd d68c 2abd 6b73 53bd e65c 0dbd
00000270: aeb8 633d 68e6 b5bc 1482 3e3d 92c8 8cbd
00000280: 5b10 8ebd 4b1b c7ba 5c3a 4ebd 3c84 99bd
00000290: efa9 cebd cd0b 69bc cdcc fcbc f5e0 19bd
000002a0: ea4b 88bd 1ba1 aabc bccc afbc d2e3 35bd
000002b0: 97f4 833b e42a 96bd a151 11bd aca8 6bb9
000002c0: e58d aebd baa3 c83c 01ef e33c 482b 1abd
000002d0: 0b54 60bd 7c96 d9bc e139 b1bd 9015 9c3c
000002e0: 72d0 cd3c 3159 8b3d 2815 843d a544 a73d
000002f0: f353 503d 6c51 1d3d 8a6c 60bd 5fd3 5d3d
00000300: 243c 8a3c 5e00 06bd 9d41 cabc d65f 323d
00000310: 9b42 2cbc ce89 8dbd 1071 6d3d b759 3a3d
00000320: 57f1 bfbd 6406 1abd a1f1 00bd ff25 833c
00000330: 49fa 093d e6e6 703d 514e f7bc fe53 3cbc
00000340: 3f43 9a3d 2051 1cbd dd2f 2abc dd80 813c
00000350: 75e0 53bd 218f 26bd 2e62 89bd 81c4 b0bd
00000360: 4813 3dbd f9dc 883b d5dc dc3a 94b6 fc3b
00000370: b2cb 923d 90b7 e03c 913b bd3c e0eb d7bc
00000380: bd12 ae3c 5dd3 f03b d81d 213c 7bac 7abc
00000390: 4ad3 2cbd 7bf6 023d 5714 6f3c 5a62 e93c
000003a0: 9a23 26bd 664f 85bc 7931 5e3c 1e7a e5bb
000003b0: 0852 75bc e68c f83b d76f 79bb 7d09 8d3c
000003c0: fd11 313b 6f24 273c 64d6 6cbd 9d7a ca3c
000003d0: c3fb 94bd 8a47 20bd ad80 a2bd 12ea 0ebd
000003e0: 8336 0cbd 13e7 63bc a96f a2bd 9bc9 73bd
000003f0: 7582 a8ba 5339 6c3c 030c 90bd f360 88bd
-0.0202504 0.057533987 0.06102917 -0.043609682 -0.0074846265 0.047725137 -0.007250137 0.030326927
-0.027029026 0.08355618 0.09414346 -0.07418019 0.0059472388 -0.0052784234 -0.026829269 -0.009564626
-0.0538057 -0.026065286 -0.020428913 0.019464971 0.027015325 -0.029503938 -0.022928886 -0.043976087
0.04433843 -0.016740624 -0.041357543 -0.07069485 0.08182305 0.03530346 0.03535352 0.016673211
0.04289132 -0.015983028 0.0317635 0.039989885 -0.046171635 -0.0292838 0.02019095 0.026149493
0.06339896 -0.0147682885 -0.059133288 0.011872159 -0.024030482 0.048362892 0.04065258 -0.034304436
0.03684164 -0.027341424 0.0003304425 -0.007850155 -0.023230793 0.031099984 -0.025675826 -0.05422172
0.06356238 0.037803743 -0.02693596 -0.04129091 -0.050775155 -0.056936592 0.018316751 0.0038195117
0.039298084 0.06372874 -0.0576986 0.03554698 -0.019126458 -0.055791773 0.06074216 -0.007015919
0.033933386 0.033205755 -0.028681936 0.00012746996 0.0052530286 -0.055676155 0.06820096 0.057378814
0.0038609412 0.0058453414 0.0068223295 -0.018925203 -0.055949245 -0.009170232 -0.07033113 -0.026394894
-0.05284927 -0.04983838 0.016785488 -0.007616034 -0.0041910666 -0.008525442 0.047807388 -0.0336856
0.04976636 -0.042488687 0.03220248 0.030654296 0.0455466 -0.011288825 -0.035630323 -0.029845575
0.001401116 -0.0333929 -0.039845075 -0.0066048 0.05022631 0.06772502 0.027671658 0.059735015
-0.029399423 0.026238063 -0.038968846 0.0077421963 0.012138932 0.04262956 0.0043338593 0.0033669593
0.011477338 -0.059045278 0.062640294 -0.002114029 -0.07155767 -0.018948708 -0.004122105 0.015300108
-0.010865769 -0.060230374 3.050446e-05 -0.022931883 -0.0034431007 -0.02022902 0.041549414 -0.005875122
-0.041718353 -0.05949302 -0.05567696 -0.05404726 -0.09345668 -0.009082459 -0.035622112 0.0045978217
0.044451952 -0.012186051 0.015980283 0.01992235 0.02870803 -0.031336695 0.008030032 0.03913635
-0.05970725 -0.041638218 -0.051623743 -0.034512423 0.055596046 -0.022204593 0.04651077 -0.06874193
-0.06936713 -0.0015190629 -0.050348625 -0.07495925 -0.10091006 -0.014224005 -0.030859375 -0.03756805
-0.066551045 -0.020828774 -0.02145993 -0.04440672 0.00402696 -0.073323995 -0.035478238 -0.00022474182
-0.08523158 0.024492133 0.027823927 -0.037638932 -0.05476765 -0.026561014 -0.08653618 0.01905325
0.025123809 0.06804121 0.06449348 0.0816739 0.05086131 0.038407728 -0.05479101 0.054156657
0.01687438 -0.032715194 -0.02468949 0.043548428 -0.010513927 -0.0691105 0.057969153 0.045495715
-0.09372204 -0.03760375 -0.031480435 0.016009329 0.033685956 0.058813952 -0.030188711 -0.011494635
0.075323574 -0.038163304 -0.010387388 0.015808517 -0.05172773 -0.040663842 -0.067081794 -0.0863123
-0.046160966 0.0041767326 0.0016850481 0.0077121947 0.07167758 0.02743128 0.023099693 -0.026357591
0.02124917 0.007349415 0.009833775 -0.015299912 -0.04219369 0.031973343 0.014592252 0.02848928
-0.040561296 -0.016273212 0.0135616 -0.007003083 -0.014973171 0.007585156 -0.0038061047 0.017216438
0.0027018778 0.010201558 -0.057821646 0.02471667 -0.07274582 -0.039130725 -0.07934699 -0.034891196
-0.034231674 -0.013910073 -0.07931454 -0.059518438 -0.0012856262 0.014417964 -0.07033541 -0.066591166

conv3.bias f4 [16]
00000000: 0754 eb38 4687 9938 5578 1f39 188c abb8
00000010: 4dcd 2037 7d41 e9b8 8b84 b3b9 f6f6 53b9
00000020: 37a3 55b8 aaae b139 d2ca 73b8 2de1 6b38
00000030: 240b eab8 e0e4 2eb9 fb2e 2839 0f88 0cb9
0.000112213245 7.320805e-05 0.00015208249 -8.18001e-05 9.5845435e-06 -0.00011122504 -0.00034240293 -0.00020214528
-5.0935163e-05 0.00033890206 -5.8124606e-05 5.6238077e-05 -0.000111600646 -0.00016679196 0.0001603923 -0.00013402126

batchnorm3.weight f4 [16]
00000000: f34f 843f dd99 833f d4b0 873f 6bed 853f
00000010: 85be 823f 6433 883f 1795 823f e4d8 843f
00000020: 834a 883f c295 823f 7fd8 853f 4358 853f
00000030: 847f 863f 21c5 833f 6302 883f 3e49 883f
1.0336899 1.028133 1.0600839 1.0463079 1.0214392 1.0640683 1.0201749 1.037869
1.0647739 1.0201952 1.0456694 1.041756 1.0507665 1.0294534 1.0625728 1.0647352

batchnorm3.bias f4 [16]
00000000: e46d c13c 1b1c 8b3c 3f2d 763c 5f0a c33c
00000010: aa62 d73c ae39 f83c 05bd 103b f2bf 013d
00000020: 2a98 003d 951b 283c 27b9 a93b 8c48 d13c
00000030: a7b9 403d 6f21 3c3c 8c53 143d 3a3c 263d
0.02361197 0.016981175 0.015025436 0.023808656 0.026292164 0.030300941 0.002208532 0.031677194
0.031395115 0.010260482 0.0051795426 0.025547288 0.047052052 0.011482581 0.03621249 0.04058478

batchnorm3.running_mean f4 [16]
00000000: 2db8 87bf 5b9d c4bf 4de0 febb ad90 703f
00000010: b75f 893f 6d67 e7be 7ed6 88bf f156 50bf
00000020: 14ab bb3e 3bbc edbf 21ae 943e 0e0d b13f
00000030: 9226 55bf 2689 42bf 7778 fcbe 6d13 1fbe
-1.0603081 -1.5360521 -0.0077782036 0.9397076 1.0732335 -0.45196095 -1.0690458 -0.8138266
0.3665396 -1.8573068 0.290391 1.3832109 -0.8326198 -0.7599052 -0.49310657 -0.15534754

batchnorm3.running_var f4 [16]
00000000: 1b35 523f 07d1 c83f f365 da3e a05a c83f
00000010: 3adf 673f 1cf2 633f 7fda 833f b209 323f
00000020: ca87 953f 74b2 893f 8c1b 873f 445e d53f
00000030: 07fc 503f c662 863f a43a 763f dd17 613f
0.8211228 1.568879 0.42655906 1.5652657 0.9057499 0.89041305 1.0301055 0.69546044
1.1682065 1.0757585 1.0555282 1.6669393 0.81634563 1.0498893 0.9618323 0.8792704

fc1.weight f4 [120, 144]
00000000: 26f3 313c 2034 463d 4a3f bcbc 7768 1cbd
00000010: 1448 643d a4b3 5e3d d4dc a13d a6fb 973d
00000020: d73f 933c 6c8b a13a 4049 e1bc 4d8b 393d
00000030: 66c7 f93c 91d5 2e3d 7dfd 7ebd e980 75bd
00000040: 83a0 143d 1cfc d5bc d25b 673d 4156 26bd
00000050: 4faf 8d3d d0c3 e0bb d4b8 903b ee82 6f3d
00000060: 702b bc3d dd55 c23d b1c8 cb3d bb8d ba3d
00000070: 953e df3c 1f23 fd3b a1c4 c4bc 7603 a43d
00000080: 66c5 313d 7a31 483d 6e37 be3d 6176 003e
00000090: d3b6 323d c53e 8f3d 53c2 b33d e8ae 083b
000000a0: 9853 f83c 36ee ce3d d969 fe3b ef6d a83d
000000b0: f4c7 cb3d ee7e d4bd a7ec bdbc cf45 ebbd
000000c0: 2338 bdbc 97b6 99bc e773 01bc 91bf 063d
000000d0: 9012 573d 5c1c 9bbd 352d d0bd 3c23 9d3c
000000e0: ecc9 683d 9a6d eabc e3f7 943c d4e8 06bd
000000f0: 6293 453d 27dd acbc 592b 9b3c a7c1 eabb
00000100: e3e2 5bbd de41 383c bc9b 8b3d 2c7c 74bb
00000110: 0c2e d83d 17e0 783d 408d b8bc 8ab2 8f3d
00000120: 235e d63d ec7c b93d 78e8 a23b 2f13 c23d
00000130: 96fe 123d cdd2 cd3d dc2d 913b 69a2 163d
00000140: 6f52 cd3d dbd5 7d3d 2e66 753d 8ab5 3bbd
00000150: d686 31bd 1d8f 903d e0e4 1d3d 8c5e 5bbd
00000160: 4373 76bd e9a6 cebb 0256 963d 2d24 d53d
00000170: 8330 003e cd4e 3bbd a52e 92bd b61a 823c
00000180: 9e09 e13a b2f1 533d 8c39 99bb b906 61bd
00000190: c3ae 763d c76a 8c3d 8813 03bd 10c5 3f3d
000001a0: 0192 73bc 7a07 9e3d 121a 1c3d f37c 803d
000001b0: 7a48 b53d 05e4 9fbc 7fdf 9f3d 07f9 aa3c
000001c0: c8d0 073d ea1a 6f3d 2376 c63d c5b2 053d
000001d0: 032b c93d 5b6d 82bd b1ec 1dbd 9407 51bd
000001e0: 7433 9d3d 65be 03bd 51d0 cfbc a732 76bd
000001f0: e0c1 b03c d755 ca3b 0ac0 ae3d 8ab4 9fbd
00000200: 3e4f 11bd 68cc 13bd 0870 ac3c 9d07 12bd
00000210: 529d 353d 950b 28bd ab23 37bd 5d2c f33d
00000220: 5cec 4e3d 3f67 f93c 35c9 473c 1a97 39bd
00000230: 4852 cd3c 5b4a 083d a7e2 d6bc f505 953d
00000240: f932 163d bf63 cdbb d321 97bd bf69 6c3c
00000250: b494 f1bb 36f9 8ebd 664c e7bc 4d30 9a3c
00000260: 3edb 783d 0b55 aabd c183 8fbc 3f0a e4bc
00000270: 1bcf cebd 041c 25bd 9c1a 093c 9a7d 0fbd
00000280: 37ae 66bd f30d afbd f4fd 0abd 7518 60bd
00000290: e2c9 213c ab5e a13c ac1b 813d 6c5b a0bd
000002a0: a158 3cbd bd36 74bd 9dad 7ebd 9591 f6bc
000002b0: 9fc7 4dbc 8133 f6bc faaf 9cbd f5e4 4a3c
000002c0: 607e e8bc d4cf 94bd d896 003d 5b08 e4bc
000002d0: 9759 9bbd 7234 a5bd d4b8 493d 7816 41bc
000002e0: 1291 fd3a eaac d0bc ee00 43bd 92a3 2dbd
000002f0: 597f 203d 4bcb 08bd 1203 063d 0822 a1bd
00000300: 3e32 f1bc 0e69 77bd 6123 4cbd b36a 2c3d
00000310: 7e90 85bd c375 4fbd 139b 8f3c bc08 51bd
00000320: 3147 9f3c 6501 533d dded 2a39 e20b 323b
00000330: 5ef9 00bc de63 0cbd 28e7 1a3d 3758 6c3d
00000340: 8eca 94bd 3a98 6a3d 11de 27bd 592b 32bc
00000350: df89 b5bc 947b 7fbd c785 87bd 0aa3 7abc
00000360: f2e5 83bd 26c9 a1bd e697 1ebd 17c2 afbd
00000370: 50e7 003d 8e86 b73c d78e 623d 40c1 6abb
00000380: c9f0 89bd 674a 9fbd 80cb 1c3c 85ae c3bd
00000390: 63c6 2dbd 062d a0bd 9a6e b8bc 58be a8bd
000003a0: 7c72 6b3c 5275 b23c 69e9 18bb c018 953d
000003b0: 62cd e3bc 8e61 683d fc53 8a3b 86a2 863d
000003c0: 9505 5fbc 4194 b9bc 6482 d9bc 4e48 0e3b
000003d0: d622 f13c 856f 9e3d 47ad 833c b21b 4ebd
000003e0: 6f5d 973d 8414 203c 2f3f 5dbd f9e9 bbbb
000003f0: b9f3 943d 481f c6bb 3704 0c3d d8ae 38bd
0.010861194 0.048389554 -0.022979397 -0.038185563 0.0557328 0.054370537 0.07903448 0.07421045
0.017974777 0.0012324876 -0.027500749 0.045298863 0.030490588 0.04268414 -0.062253464 -0.05993739
0.03628589 -0.026121192 0.05648405 -0.040609602 0.06918203 -0.00685928 0.0044165645 0.058474474
0.091879725 0.09489033 0.09950388 0.09109064 0.027251521 0.007725134 -0.024019541 0.080084726
0.043401144 0.04887531 0.09287916 0.12545158 0.043631386 0.06994394 0.08777299 0.0020856205
0.030313298 0.10104029 0.007764083 0.08224093 0.099502474 -0.103757724 -0.023184134 -0.11487924
-0.023098057 -0.018763823 -0.007901168 0.032897536 0.052507937 -0.075737685 -0.101648726 0.01918184
0.056833193 -0.028616715 0.018184608 -0.032936886 0.04823626 -0.021101547 0.018941568 -0.0071641984
-0.053683173 0.011246173 0.06816813 -0.0037305458 0.10555658 0.060760584 -0.02252829 0.070164755
0.10467174 0.0905703 0.00497156 0.09476315 0.035887323 0.10049973 0.0044305157 0.03677598
0.100254886 0.061971527 0.0599119 -0.045827426 -0.04334148 0.07058547 0.03854835 -0.053556964
-0.060168516 -0.0063065183 0.073406234 0.104072906 0.12518506 -0.045729447 -0.07137803 0.015881877
0.0017169004 0.05174417 -0.0046760496 -0.05493805 0.06022526 0.06856304 -0.03200105 0.046818793
-0.014866353 0.0771627 0.0381108 0.06273832 0.088517144 -0.019517908 0.078063 0.020870699
0.033158094 0.058375277 0.096905015 0.03264119 0.09822657 -0.06368514 -0.038555805 -0.051032618
0.076758295 -0.032163996 -0.025367888 -0.0601069 0.021576822 0.0061747837 0.08532722 -0.07798107
-0.035475962 -0.03608361 0.021049514 -0.03565179 0.044339485 -0.04102667 -0.04471175 0.11873696
0.05051838 0.03044474 0.012193968 -0.045310117 0.025063649 0.033274036 -0.026231123 0.07276527
0.036669705 -0.006267994 -0.07379498 0.014429509 -0.007372463 -0.06981127 -0.028234672 0.01882186
0.06075596 -0.08317002 -0.01751888 -0.027836917 -0.10098096 -0.04030992 0.008368161 -0.035031892
-0.056318488 -0.085475825 -0.033933595 -0.054710824 0.009874793 0.019698462 0.06304106 -0.07829937
-0.04598296 -0.059622515 -0.06217729 -0.030098716 -0.0125598 -0.030053856 -0.07650752 0.012383689
-0.028380573 -0.072662026 0.031393856 -0.027836015 -0.07585447 -0.08066644 0.04924853 -0.011785142
0.0019345602 -0.025473077 -0.04760831 -0.04239232 0.03918395 -0.033397 0.03271777 -0.07867819
-0.029442903 -0.060402922 -0.049838427 0.042093944 -0.065217 -0.050649416 0.01753 -0.05103372
0.019443126 0.051515 0.00016301074 0.0027167727 -0.007871954 -0.03427493 0.037818104 0.057701316
-0.07265197 0.05727408 -0.040983263 -0.010874593 -0.022160469 -0.062373713 -0.06617313 -0.015297661
-0.06440343 -0.07899694 -0.03871908 -0.085819416 0.031470597 0.022403028 0.055312004 -0.0035820752
-0.06735379 -0.07777863 0.009570003 -0.09554771 -0.042425524 -0.078210875 -0.022513676 -0.0823943
0.014370557 0.021784458 -0.0023332483 0.07280111 -0.027807895 0.05673366 0.0042214375 0.06573968
-0.013612171 -0.0226537 -0.026551433 0.0021710577 0.029435556 0.077361144 0.016073836 -0.05031938
0.07390868 0.009770516 -0.054015335 -0.005734679 0.07273049 -0.0060462095 0.034183707 -0.04508862

fc1.bias f4 [120]
00000000: 7dd9 4f3d 6ae3 adbd f2f7 553d 3153 093d
00000010: 5b6a 483d 81e3 553c cb03 0b3a 1b3b 693d
00000020: a0f6 a2bc 7782 7dbd 48fc 26bd 6ab3 78bd
00000030: bb9f 933d 1d1b 4bbd 3a6a 6cbd 4708 67bd
00000040: 571c 15bd 265b b5bc e784 643d 4276 d83c
00000050: 2fb1 1dbd 9e3e 3c3c 46c1 b33d faf7 86bd
00000060: 1919 a63d 73ef 97bd f8d9 8abc 1700 c4bd
00000070: 08c0 993d bcd3 f33c 6e6e 893d 8778 b83d
00000080: 12e4 a63c c543 27bd ae11 83bd 72da afbb
00000090: 2648 42bc 56f7 12bd decf 28bd 32b7 a2bd
000000a0: aaaa 0bbd 758d 983d ad7f bcbc 8772 af3d
000000b0: 705f 30bd 3d77 993d 0ff3 a93d 8e24 48bd
000000c0: 2305 9c3d e038 203d 1b1d 79bc 1a10 d4bc
000000d0: 468e aabc 5e1c 26bd 0143 e83c dc40 923d
000000e0: 8c35 04bd f6c9 4d3d ec63 313d e90c 473d
000000f0: 6f90 3e3b dd03 9ebc 7cd7 68bd 11bf 013c
00000100: e0a6 58bd ad86 323d 7f09 843d a46c 57bd
00000110: ecb0 323d 2585 a33b ca9b 10bd 4044 8d3d
00000120: 9905 3ebc f8b5 adbc cd42 273d a9f8 91bd
00000130: d8f7 8b3d b859 b23d f2f8 f23c 9b2c 2d3d
00000140: 9e45 6ebd cf20 b8ba ea1c 933d 13f7 f4bc
00000150: 40f4 423d f050 90bd a283 a23d 44d6 ac3c
00000160: ed3d 52bd afd0 a73c 997f c9bc a8a2 9cbc
00000170: fc73 d63d 0289 0fbd 2f66 893d 1828 c3bc
00000180: bea4 1d3d 670e 2cbc 747a 963d c5cd 43bd
00000190: 045c 8c3c 84ed 7f3d 92c8 b83b 1659 c13d
000001a0: 0b60 1ebd 2908 f33d 3fb4 d33d 138d 60bd
000001b0: ff14 b53d d477 0f3d a8e9 683c 9a19 983d
000001c0: bbd9 99bc 419c 3fbc d151 373d e2c8 46bd
000001d0: a5f8 01bd 993f 3a3b 6c0b 13bd 2c3f c8bd
0.050744522 -0.084906414 0.052238412 0.033526603 0.048929553 0.013054729 0.00053029944 0.056941133
-0.01989299 -0.061892 -0.040767938 -0.060717978 0.072082005 -0.049586404 -0.057718493 -0.05640438
-0.03640398 -0.02213819 0.055790808 0.026423577 -0.038499054 0.0114895385 0.08777098 -0.065902665
0.08110256 -0.07418718 -0.016949639 -0.0957033 0.0750733 0.029764049 0.06710516 0.09007364
0.020372424 -0.040836114 -0.063998565 -0.005366617 -0.011858022 -0.03588041 -0.041213863 -0.07945098
-0.034098305 0.07448856 -0.0230101 0.08566766 -0.043059766 0.07493446 0.08298313 -0.048862986
0.07618167 0.03911674 -0.015204693 -0.025886584 -0.020819794 -0.040554397 0.028352262 0.07141277
-0.03227763 0.050241433 0.043308184 0.048596296 0.0029077788 -0.019288952 -0.056846127 0.007919089
-0.05289352 0.043585468 0.06447124 -0.052593842 0.043625757 0.0049902373 -0.035304822 0.06897783
-0.011598014 -0.021204934 0.04083519 -0.07127506 0.06834382 0.08708519 0.029659722 0.042278867
-0.05817186 -0.0014047864 0.07183249 -0.02990297 0.047596216 -0.070466876 0.07935263 0.021098264
-0.05132859 0.02048525 -0.024596976 -0.01912053 0.10471341 -0.03504277 0.06708943 -0.02382283
0.03848719 -0.010501481 0.07347575 -0.04780366 0.01713372 0.062482372 0.005639144 0.0944082
-0.038665812 0.11866791 0.103371136 -0.05482204 0.08841895 0.035026386 0.014215864 0.07426758
-0.01878058 -0.011694969 0.04475576 -0.04853142 -0.031731267 0.0028419255 -0.035899565 -0.09777674

fc2.weight f4 [84, 120]
00000000: a5a5 12bd 96fe 92b8 f872 293b af9d c4bc
00000010: 366b 55bc ecc4 9bb9 e8e8 9ebd 1dea b9bc
00000020: d439 823d 9035 59bd d783 82bc e1b7 b7bd
00000030: 9dc5 9e3c 02dc c3bd e4cb d8bc 24bf 8cbd
00000040: d5aa cfb9 ca96 85b4 1e28 93bd f4ad c7bc
00000050: c691 df3c 3cec 70bd 41ab 4c3d 39eb d5bc
00000060: e19f 0d3b f2b7 29bc a4dc cd3c 1cad 1dba
00000070: fab8 70bd 8b0b 4a3d 9148 213d 25cc b73d
00000080: 136f 84bd d120 4dbd 95ad efbc f66a 47bd
00000090: 07bd cf3c ec30 c2bd 061a 05bd 6446 813d
000000a0: 12d4 b6bd 3d0f 723c e07a 43bc ca86 4bbd
000000b0: c129 91bd fa7a 413c dc38 febb c87e 78bc
000000c0: 3a68 99bd 5655 74bd 70fb c93d 0840 463d
000000d0: 3d17 d4bb 4380 fe3c b03c 97bc 1518 0fbc
000000e0: 4a17 2bbd 2e72 c3bd 8536 d4bc a444 c3bd
000000f0: 5886 603c ba70 8a3c f410 6bbd f8c7 2abc
00000100: 2dab 8cbd ad33 ad3c 01d5 543d 2e15 20bd
00000110: a1d8 2ebd 9f22 6f3d 8ddc 533d a16d b0bb
00000120: f43d 87b9 9fa7 39bd 7ed4 2dbd b835 1239
00000130: e2e4 b1bb b93d 853d e4a1 8f3d fd8e a53c
00000140: fd99 21bd dc58 22b8 6cf6 89bc f918 acbc
00000150: 5f78 a0bd e198 d937 eaf2 b0bd bbe5 b13c
00000160: 34bd 38bb 1d4f 3abd 608b e43a 0043 8abd
00000170: 27cf 183d c126 7b3c e132 1a3c 6cc9 76bd
00000180: 3bef b9bd 84b1 5039 1da3 51bc a132 063c
00000190: 92ef 643d fe26 bf3c bba6 57bd 2aaf 2bbd
000001a0: a977 183d a8ef 2dbd d043 3f3d 04f8 3e39
000001b0: 443f 59bd b12e 99bd 345d cebc 513c a1bd
000001c0: 3ff3 4c3d bbd0 47bd c36e 6abd 7554 f1bc
000001d0: d9c3 e5bc 35b3 08bd 189b c7bd 5de9 12bd
000001e0: 7e65 a43d 21e8 69bb 758b a6bd 6220 f9bc
000001f0: 12af 673d d9b7 573d efa6 8c3d a084 033d
00000200: bffa 953c da5b 653d f875 043e 0c93 a93d
00000210: 6acf 903c 1acb 6d3d fcc4 8e3d 18e0 20bd
00000220: 6727 de3d 20c9 adbc dc89 44bb c12f 343d
00000230: f4d4 ce3d 18e4 b0bc c429 94bd 663d c93d
00000240: 0257 20bd 76d7 21bd 831f 393d b2b3 ce3d
00000250: 158c 2cbd 6d4b 8ebd b5db 22bd a034 bcbc
00000260: ddac 19bd 65c7 64bd a241 c1bc 4323 fa3c
00000270: 920f c23d 5918 bb3c 7239 d53d 0783 50bc
00000280: 3df0 53bd 0a2b bd3d c565 6a3c b69b a539
00000290: 08ec 8e3d 76f7 e0bc 25c0 c9bc 2c33 643d
000002a0: 47a8 aebd 21a9 3a3c 1b74 81bd 1a63 803d
000002b0: 4673 953d 8428 70bd f91a 2e3d 3f8a a63d
000002c0: 4d6d 27bd 770b 4d3c 24f2 d43d c0fd 4fbd
000002d0: ecc3 0c3e ca1f 8e3d 1cfa 96bd 4b10 8d3d
000002e0: 11a4 483c 22e4 0abd 01cd 703b 1cd0 0cbd
000002f0: 8379 5d3d d313 d83b c03a dabc a41a 6a3d
00000300: 8d8c 40bc d18e 15bd f07a b13d 3013 943a
00000310: 0419 9ebd 0c73 5bbd 72dd 93bb 6fb9 883d
00000320: 018e 693c 979d ee3d 5aca 2a3c d0b5 233d
00000330: 9d18 b83d 98a7 883c 17f3 703d feb7 2fbc
00000340: c78b c7bc e0de ba39 0274 833c 6d19 debc
00000350: 5bf0 c6bd f525 e9bc be14 9b3d b055 a4bd
00000360: e64e de3c 3f01 56bd c2d8 bd3c b435 1e3d
00000370: 6684 343d c098 ecbc 0bc2 313d 8ded dcbd
00000380: ba3c 483d 23c0 aebd cf94 bbbc 1311 9a3b
00000390: dbb1 cabc 9fee dcbc 870f 3d3d 5bc3 03bd
000003a0: 2b57 ab3d 5c46 1b3d b8f4 b7bd 190c 3f3d
000003b0: 1261 26bc 2357 143c 0d56 623b 47c8 ab3d
000003c0: f5dd 983c 4190 e03b b659 043b 6f71 ef3c
000003d0: 3b64 ba3d 5687 3d3d b04a 5dbd 7bb7 9abc
000003e0: d7ae ee3c 1d18 183d 8e48 3d3d c964 a2bd
000003f0: ba2a 77bc 1eba 0f3d 1852 7cbd 20fe b9bd
-0.035802502 -7.009243e-05 0.002585588 -0.02400097 -0.013026049 -0.00029710622 -0.07759267 -0.022694642
0.06358686 -0.053029597 -0.015932007 -0.08970619 0.019381339 -0.095634475 -0.02646441 -0.06872395
-0.00039609396 -2.4882894e-07 -0.07185386 -0.02437494 0.02729119 -0.05881904 0.049968008 -0.02611314
0.0021610188 -0.010358797 0.025129624 -0.000601487 -0.058770157 0.049327414 0.039375845 0.08974484
-0.06466498 -0.050080124 -0.029257575 -0.04868599 0.02535869 -0.09481987 -0.03249552 0.06312254
-0.08927168 0.014774141 -0.011931151 -0.04968909 -0.07088042 0.011809105 -0.007758243 -0.015166946
-0.07490583 -0.059651695 0.09862411 0.04840091 -0.006472497 0.03106702 -0.018461555 -0.008733769
-0.041770257 -0.095432624 -0.025904903 -0.095345765 0.013703905 0.016899455 -0.057389215 -0.010423653
-0.06868587 0.021142805 0.05196095 -0.0390827 -0.042687062 0.058382627 0.051724005 -0.0053841625
-0.00025795365 -0.04532587 -0.042438976 0.00013943657 -0.0054288963 0.06505913 0.070133 0.020209784
-0.039453495 -3.8706567e-05 -0.016841136 -0.021008002 -0.07835459 2.5939606e-05 -0.08640082 0.02171599
-0.0028188946 -0.045485605 0.0017436557 -0.067510605 0.03730693 0.015329064 0.009411545 -0.060250685
-0.09078833 0.00019902556 -0.012795237 0.008190782 0.055892535 0.023334023 -0.05264924 -0.041915096
0.03722349 -0.042464882 0.04669553 0.00018212205 -0.05303885 -0.07479609 -0.025190927 -0.078728326
0.050036665 -0.048783045 -0.057234537 -0.029459218 -0.028047489 -0.03337403 -0.09746379 -0.035867084
0.080271706 -0.0035691338 -0.08132068 -0.03041095 0.056563444 0.052665565 0.068677776 0.032108903
0.018308042 0.0559958 0.12935627 0.0828 0.017677028 0.05805502 0.069711655 -0.039276212
0.10847359 -0.021214068 -0.0029989397 0.043990854 0.10099211 -0.021593139 -0.07234529 0.09826164
-0.039145477 -0.03951212 0.045196068 0.10092868 -0.04212578 -0.0694798 -0.03976031 -0.022974312
-0.03751837 -0.05585422 -0.023590866 0.030534392 0.09475626 0.022838758 0.104113474 -0.012726552
-0.05174278 0.09236725 0.01430649 0.00031587266 0.06978613 -0.027461749 -0.024627754 0.055712864
-0.0852819 0.011392863 -0.063209735 0.06268902 0.07297377 -0.05863239 0.042506192 0.08131837
-0.04087572 0.01251494 0.10397747 -0.050779104 0.13746613 0.06939657 -0.07371923 0.06887873
0.012246148 -0.03390897 0.0036743286 -0.034378156 0.05407096 0.00659416 -0.026639342 0.057154313
-0.01175226 -0.036513153 0.086660266 0.0011297222 -0.07719615 -0.053576514 -0.0045124823 0.06675994
0.014255048 0.116511516 0.010424221 0.03996831 0.089890696 0.016681477 0.05882558 -0.0107250195
-0.024358643 0.0003564274 0.016046528 -0.027111733 -0.09713813 -0.028460482 0.07572316 -0.08024156
0.027137231 -0.052247282 0.023174647 0.038625434 0.044071577 -0.02888143 0.043397944 -0.10787497
0.04888604 -0.08532741 -0.022898106 0.0047017424 -0.024743011 -0.026969252 0.046157386 -0.032168727
0.08366235 0.037908897 -0.08982223 0.046642397 -0.010154979 0.009053978 0.0034536154 0.08387809
0.018660525 0.006853134 0.0020195073 0.029228894 0.09101149 0.046271645 -0.054026306 -0.018886318
0.029136105 0.03713237 0.04621177 -0.079293795 -0.01508587 0.035089605 -0.06160173 -0.090816736
